custom_model.pth (torch, 8760 bytes, 4 tensors)

fc1.weight f4 [128, 6]
0	0xbf3eaded	-0.7448414
1	0x3e5ae5ca	0.2137672
2	0x3f024e8b	0.509011
3	0x3ab0678e	0.0013458596
4	0xbd931037	-0.07180827
5	0x3d456e56	0.048200928
6	0x3f597890	0.8494959
7	0x3d1ddaa9	0.03853861
8	0x3b9b30ec	0.0047360566
9	0x3e26bf65	0.16283949
10	0x3dc33946	0.095324084
11	0x3d95f862	0.07322766
12	0xbf5f8d03	-0.8732454
13	0x3e924f6d	0.28576222
14	0x3f15442b	0.5830714
15	0x3ea05f7d	0.31322852
16	0xbd1e3d66	-0.038632773
17	0x3e96ee6f	0.29478785
18	0xbe455aba	-0.1927289
19	0xbefaa0c6	-0.48950785
20	0x3dfa5f21	0.12225176
21	0x3eb2d153	0.34925327
22	0x3e6ff9e3	0.23435168
23	0x3e876ab1	0.26448587
24	0xbe59af5d	-0.21258302
25	0xbe04e964	-0.12979656
26	0xbe1e992e	-0.15488121
27	0x3f251fe8	0.6450181
28	0x3ec018b2	0.3751884
29	0x3ed7a802	0.42120367
30	0x3f3e8ce2	0.7443372
31	0xbb4df3d4	-0.003142585
32	0xbf766c8a	-0.9625937
33	0x3e383564	0.17989117
34	0xbef3812c	-0.47559488
35	0x3e86b47c	0.26309574
36	0x3fa53e80	1.2909698
37	0x3eb2c0bb	0.34912667
38	0x3d03c656	0.03217157
39	0x3eaa692e	0.3328337
40	0x3df816a4	0.12113693
41	0x3dc83fa8	0.097777665
42	0xbf829fba	-1.0204995
43	0xbd63d292	-0.055620737
44	0x3e5b4e73	0.21416645
45	0x3ee7fea4	0.45311463
46	0xbdbab343	-0.09116223
47	0x3ea337ca	0.318785
48	0x3f113069	0.56714493
49	0xbe84921c	-0.25892723
50	0x3d5aefa2	0.053451188
51	0x3f0b5dea	0.54440176
52	0x3f55727b	0.8337781
53	0xbec416be	-0.382986
54	0x3fbd8b3e	1.4808118
55	0x3e2adeaf	0.1668651
56	0x3eecefe4	0.46276772
57	0x3e6f3e23	0.23363547
58	0x3e7264f8	0.23671329
59	0x3d415952	0.047204323
60	0xbf3cc6b8	-0.7374072
61	0x3dfd2c5b	0.12361976
62	0x3d07d390	0.033160746
63	0x3eb2c7bc	0.3491801
64	0x3dd59e07	0.10430532
65	0x3e852d04	0.26010907
66	0x3f31c2ef	0.6943807
67	0x3f06106b	0.523688
68	0xbe05c8f5	-0.1306494
69	0x3e7652a8	0.24054968
70	0x3eaaa22a	0.33326846
71	0x3ebacde0	0.36485195
72	0x3f32f6c3	0.6990778
73	0x3eead86c	0.45868242
74	0xbec00a75	-0.37507978
75	0x3d87bbfb	0.06627651
76	0x3deb3155	0.11484019
77	0x3ddd7cfe	0.10814856
78	0xbf1e057f	-0.61727136
79	0x3e4094a5	0.18806703
80	0x3e53d7f0	0.20687842
81	0x3de803b5	0.11328832
82	0x3e0358b2	0.12826803
83	0x3e63b3d3	0.22236566
84	0xbf28ef3b	-0.65990037
85	0xbea8bfad	-0.32958737
86	0x3e0a0423	0.1347814
87	0xbcdb8b41	-0.0267998
88	0x3ef38aa6	0.47566718
89	0x3ecb9cae	0.39767975
90	0x3f5f4f7e	0.8723067
91	0x3e216e4d	0.15764733
92	0x3eabaa88	0.33528543
93	0x3ee90351	0.45510343
94	0x3ee3b298	0.44472194
95	0x3b8d3af8	0.004310008
96	0xbf642475	-0.8911813
97	0xbd384e23	-0.044996392
98	0xbdf9e863	-0.122025274
99	0x3ebe0733	0.37114868
100	0x3e211c84	0.15733534
101	0x3f006d8d	0.5016716
102	0xbf152850	-0.58264637
103	0xbd12b1e9	-0.0358142
104	0x3e80c743	0.25152025
105	0xbc990342	-0.018678311
106	0x3eda2322	0.4260493
107	0xbb0be6ac	-0.0021347208
108	0x3df47f1e	0.11938308
109	0xbe891e66	-0.26781005
110	0x3e74c1a3	0.23901992
111	0xbe9235de	-0.28556722
112	0xbe73aa53	-0.23795442
113	0xbdfba2d4	-0.122869164
114	0xbf88fc68	-1.0702028
115	0xbf25176b	-0.6448886
116	0x3ec57278	0.38563895
117	0x3ee09c9f	0.43869492
118	0x3e7b838a	0.24561897
119	0xbf7c38ea	-0.98524344
120	0xbf4c14b7	-0.7971911
121	0x3dc0350e	0.093851194
122	0xbeadd1ed	-0.33949223
123	0x3e4b506c	0.19854897
124	0x3edf1673	0.43571815
125	0x3ef6a073	0.48169288
126	0x3e7ec9cb	0.24881665
127	0x3e2e9da7	0.17052327
128	0x3ee4a125	0.44654194
129	0x3e8af576	0.27140397
130	0xbebd3679	-0.36955622
131	0xbd56cd63	-0.052441966
132	0x3f373cf8	0.71577406
133	0xbecc8468	-0.39944768
134	0xbef40526	-0.47660178
135	0x3ece7920	0.40326786
136	0x3e4a1133	0.19733123
137	0x3e97f41d	0.2967843
138	0xbf6c0d0e	-0.9220742
139	0x3e030023	0.12793021
140	0xbebd6a25	-0.36995044
141	0x3e1b248a	0.15150657
142	0x3f5b2c8a	0.85614836
143	0xbef99895	-0.48749223
144	0xbe8abaac	-0.27095544
145	0x3da34b6c	0.0797337
146	0x3db07a2a	0.08617051
147	0xbcdc26ec	-0.026874028
148	0xbda1a4d0	-0.078927636
149	0xbdd8be0b	-0.10583123
150	0x3f89492e	1.0725458
151	0x3d9043aa	0.07044156
152	0x3e79ecf0	0.2440679
153	0x3e8f37aa	0.27972156
154	0x3ea8c4aa	0.32962543
155	0xbe16c6bb	-0.14724247
156	0xbe52201c	-0.20520061
157	0x3b6f4900	0.0036512017
158	0xbecbfe02	-0.3984223
159	0x3e58a748	0.21157563
160	0xbe8b6a16	-0.27229375
161	0xbe9a819a	-0.30177003
162	0xbf944398	-1.1583128
163	0xbded4222	-0.115848795
164	0xbde370f9	-0.11105532
165	0x3ea67eee	0.32518715
166	0xbe2b658e	-0.16737959
167	0x3f05b8ab	0.52234906
168	0x3f8beb20	1.093113
169	0x3eee2ac9	0.46517017
170	0x3e099003	0.13433842
171	0x3eeb5d77	0.45969746
172	0x3ed77f32	0.4208923
173	0x3ef148ab	0.47125754
174	0xbe0193f2	-0.12654093
175	0xbe8959cd	-0.26826325
176	0xbdb84914	-0.089983135
177	0xbe99928c	-0.2999462
178	0x3e66d500	0.2254219
179	0xbe1d83f2	-0.15382364
180	0x3f46d7c4	0.7767298
181	0xbec8217c	-0.39088047
182	0x3e89ee18	0.26939464
183	0x3f14e310	0.5815897
184	0x3d0665d2	0.032811947
185	0x3f01fd48	0.507771
186	0x3f8e3c45	1.1112143
187	0x3e495e50	0.19664884
188	0x3ee12cd0	0.43979502
189	0x3b6462cf	0.0034848934
190	0x3f06c43a	0.5264317
191	0xbcafa872	-0.021442626
192	0x3f83d50a	1.0299389
193	0xbe74db64	-0.23911816
194	0x3f082810	0.5318613
195	0x3e034efa	0.12823096
196	0x3e95835e	0.29201788
197	0xbd687df5	-0.056760747
198	0x3f7a2aaf	0.9772138
199	0x3e9ddbe5	0.3083183
200	0x3ea5f211	0.32411245
201	0xbe60c3b4	-0.21949655
202	0xbe25f9c4	-0.1620856
203	0x3ea41075	0.32043806
204	0xbf0e21af	-0.5552015
205	0xbe965581	-0.2936211
206	0x3df9f28b	0.122044645
207	0x3e182297	0.14856945
208	0x3eae85ee	0.34086555
209	0xbed27a2a	-0.4110883
210	0x3f649662	0.89291966
211	0x3ef1a3b4	0.47195208
212	0xbe7a619b	-0.24451296
213	0xbda5fc6d	-0.08104787
214	0x3e21f9f5	0.15818007
215	0x3f18134f	0.5940446
216	0xbfb604a3	-1.4220165
217	0xbe4add04	-0.19810873
218	0xbae10bcf	-0.0017169657
219	0x3ed3ac2f	0.41342303
220	0x3e9fcfba	0.3121317
221	0x3e81a674	0.25322306
222	0x3e6231c8	0.22089303
223	0xbe8863ee	-0.2663874
224	0xbdd29f78	-0.102843225
225	0x3b92b340	0.0044769347
226	0xbe0a49d6	-0.13504729
227	0x3d6c9e90	0.057768404
228	0xbf48bb18	-0.7841048
229	0x3f352e35	0.7077363
230	0xbded7653	-0.11594834
231	0x3e739387	0.23786746
232	0x3e70c55a	0.23512784
233	0x3e8d196b	0.27558455
234	0xbfa5abbe	-1.2943037
235	0xbe18a6a6	-0.14907321
236	0x3efd1109	0.4942706
237	0x3eab9763	0.33513936
238	0x3d348223	0.04406942
239	0xbdc9fe54	-0.09862962
240	0x3f3b2734	0.73106694
241	0xbd58cbc7	-0.052928712
242	0x3ecc1f27	0.39867517
243	0x3ec8159e	0.39078993
244	0xbd6cc01b	-0.057800394
245	0x3efefeda	0.4980381
246	0x3eada00d	0.33911172
247	0x3e396207	0.181038
248	0xbec0e19f	-0.37672135
249	0x3ef74a0e	0.48298687
250	0x3edb786c	0.42865312
251	0xbde4f7c0	-0.11180067
252	0x3f406332	0.7515136
253	0x3f0c76ca	0.5486876
254	0x3e1577ee	0.14596531
255	0x3e21c5f3	0.15798168

fc1.bias f4 [128]
0	0x3efd1bff	0.49435422
1	0x3e861209	0.26185635
2	0xbe35575f	-0.1770911
3	0x3e5ba34a	0.21449009
4	0xbf181d4e	-0.59419715
5	0xbeed04a1	-0.46292594
6	0x3ed91a31	0.42402795
7	0x3ef9e483	0.48807153
8	0xbed1a7dd	-0.40948382
9	0x3e9ec01e	0.3100595
10	0x3eee15db	0.4650105
11	0xbd1b7342	-0.037951715
12	0x3ed2f170	0.41199827
13	0x3e993dee	0.2993006
14	0x3ee0504d	0.43811265
15	0xbdb03828	-0.08604461
16	0x3ef922ff	0.48659512
17	0x3edd5dc3	0.43235597
18	0xbe9639ee	-0.29341072
19	0x3f393ad9	0.7235542
20	0x3f05b6fa	0.52232325
21	0xbd800c1a	-0.06252308
22	0x3ead775e	0.33880132
23	0x3eab9608	0.33512902
24	0xbea99f87	-0.33129522
25	0x3e4398ef	0.19101308
26	0xbe845024	-0.25842392
27	0x3ee0ab6f	0.43880793
28	0xbdbdfea6	-0.09277086
29	0xbe9211e8	-0.28529286
30	0x3d856930	0.065142035
31	0x3da5284d	0.080643274
32	0x3e901422	0.2814036
33	0x3e9fdab4	0.31221545
34	0x3ef8453d	0.48490325
35	0x3e99b5ff	0.30021665
36	0x3ddf2029	0.10894806
37	0xbeb33da8	-0.35007977
38	0xbdf47470	-0.11936271
39	0x3e8f3c97	0.27975914
40	0x3d5ffc48	0.054683954
41	0xbed45060	-0.4146757
42	0x3ea312b5	0.3185021
43	0x3d8aaf29	0.067716904
44	0xbe874c32	-0.2642532
45	0xbe7d36d2	-0.24727944
46	0x3ecb2570	0.39677
47	0xbf45993f	-0.7718696
48	0xbf0ad0cf	-0.54224867
49	0x3ed5d3c4	0.41763127
50	0xbe61d5bd	-0.22054191
51	0x3ef4b036	0.47790688
52	0x3ea60037	0.3242204
53	0xbe29122e	-0.16510841
54	0x3ec3b228	0.3822186
55	0x3f17caa8	0.59293604
56	0xbd6c42e5	-0.057680983
57	0x3dd0e661	0.10200191
58	0x3eb4ea3d	0.3533496
59	0x3f4ea3db	0.80718774
60	0x3e982689	0.297169
61	0x3ecaa40d	0.39578286
62	0x3edf8336	0.43654794
63	0x3e890ee8	0.26769185
64	0x3e4a868a	0.19777885
65	0xbcca5194	-0.024697103
66	0x3e93317b	0.28748688
67	0xbecc981d	-0.39959803
68	0x3ecab377	0.39590046
69	0x3eca8649	0.39555576
70	0x3ec5ff62	0.38671404
71	0xbe929b3e	-0.28634065
72	0x3f273b85	0.65325195
73	0x3d431392	0.047626086
74	0x3ef971de	0.48719686
75	0x3ee54d54	0.4478556
76	0x3e591bf5	0.21202071
77	0x3e35fff4	0.1777342
78	0xbcc8fe82	-0.024535421
79	0xbbc47bae	-0.005996189
80	0x3f16a6e7	0.5884842
81	0x3eae2045	0.34008995
82	0x3e605e2a	0.2191092
83	0xbe2a4ce2	-0.16630891
84	0x3eb386cb	0.35063776
85	0xbf0e90f9	-0.5568996
86	0xbf280ddf	-0.65646166
87	0x3ed06d21	0.4070826
88	0xbebb2ef3	-0.36559257
89	0x3e6df6e8	0.23238719
90	0x3ef5cb50	0.48006678
91	0x3ea1a7d0	0.31573343
92	0xbec412af	-0.38295504
93	0x3f0ad3c2	0.54229367
94	0xbf1824c6	-0.5943111
95	0xbeca7935	-0.395456
96	0xbe077d9e	-0.13231513
97	0xbd3f5f65	-0.046721835
98	0x3eadc72a	0.33941013
99	0xbd9ee2dd	-0.077581145
100	0x3d8fdc2c	0.07024416
101	0x3d3d422c	0.046205685
102	0x3b5863d9	0.0033018498
103	0xbe3c1b63	-0.18369822
104	0x3ea0cd60	0.3140669
105	0x3e2e6ef9	0.1703452
106	0x3ebe2720	0.37139225
107	0xbe9ef5d2	-0.3104692
108	0x3e18a8f4	0.149082
109	0x3c9efd98	0.019408032
110	0xbbca230e	-0.0061687296
111	0xbd82604c	-0.063660234
112	0x3e9ca379	0.3059347
113	0x3ee538f3	0.4477001
114	0xbd4bd4e5	-0.04976358
115	0x3be63d56	0.007026355
116	0x3dd9abf9	0.10628504
117	0x3ec02cb5	0.3753411
118	0x3e127493	0.14302282
119	0x3dac3dc6	0.0841022
120	0x3ea801d6	0.328139
121	0x3e90f8eb	0.2831491
122	0xbe16630e	-0.14686224
123	0xbe7d237c	-0.24720567
124	0x3ec433fc	0.3832091
125	0x3ebef0d3	0.3729311
126	0x3f107a1d	0.5643633
127	0xbe2ef0c6	-0.17084035

fc2.weight f4 [6, 128]
0	0x3ecfdf99	0.4060028
1	0xbef10f85	-0.47082153
2	0x3f82e9f1	1.0227643
3	0x3d5c5b68	0.05379811
4	0x3e1e6054	0.15466434
5	0xbe092fbd	-0.13397117
6	0xbfa64ac0	-1.2991562
7	0x3ee6b4e1	0.45059875
8	0xbf0f4a73	-0.55972975
9	0xbfad1681	-1.3522493
10	0x3ee46013	0.4460455
11	0xbea0c12b	-0.31397375
12	0xbe7c189d	-0.24618764
13	0x3ed8790b	0.42279848
14	0x3ef554e3	0.47916326
15	0xbf3b5233	-0.731723
16	0x3f12956a	0.5725924
17	0x3ef778b4	0.48334277
18	0xbc32dedf	-0.010917394
19	0x3f4cc986	0.79995
20	0x3ec740a9	0.3891652
21	0xbe6772ad	-0.22602339
22	0xbf02f6df	-0.51157945
23	0x3f8a50f3	1.0805954
24	0x3cfde517	0.030993028
25	0xbf0c876f	-0.54894155
26	0xbda2f722	-0.07957293
27	0x3f619c28	0.881289
28	0xbf36a91c	-0.7135179
29	0x3ce9ecd0	0.028555304
30	0xbede35de	-0.43400472
31	0xbf0fbf99	-0.5615173
32	0xbef72fa4	-0.48278534
33	0xbebe2b8b	-0.37142596
34	0x3eb15699	0.3463638
35	0xbf0669c1	-0.5250512
36	0x3fa5c727	1.2951401
37	0xbca09b70	-0.019605368
38	0x3ef70a64	0.48250115
39	0x3f776506	0.96638525
40	0xbf75c07f	-0.9599685
41	0xbe937980	-0.28803635
42	0xbf2b66cd	-0.66953737
43	0xbf05178b	-0.5198905
44	0x3de82ef6	0.11337082
45	0x3e8bf0f7	0.2733228
46	0xbefde19a	-0.49586183
47	0xbe40b67d	-0.18819614
48	0x3d145bc6	0.036220334
49	0x3f56dd38	0.83931303
50	0x3dd6c5d1	0.10486949
51	0x3ec4395d	0.38325015
52	0xbf32d4cc	-0.6985595
53	0xbf0820f7	-0.531753
54	0xbed1e915	-0.4099814
55	0x3efb6765	0.4910232
56	0xbf07abe1	-0.5299664
57	0xbe679360	-0.22614813
58	0x3ee612e5	0.4493629
59	0x3f40a9ff	0.75259393
60	0x3fa65a25	1.299626
61	0x3ecb2f2f	0.39684436
62	0x3eaf18b8	0.34198546
63	0xbec2996b	-0.38007674
64	0x3ed526ae	0.41631073
65	0xbf47adc3	-0.77999514
66	0xbf7a4441	-0.977604
67	0xbd091d7d	-0.033475388
68	0x3da10560	0.07862353
69	0xbf38ca67	-0.7218384
70	0xbe7f4abb	-0.24930851
71	0x3d2a3010	0.041549742
72	0x3f602ad9	0.8756538
73	0xbf3add33	-0.72993773
74	0xbf1ab0ee	-0.60426223
75	0xbef7f5ef	-0.4842982
76	0xbf07be52	-0.5302478
77	0x3f240413	0.64068717
78	0x3efd1070	0.49426603
79	0xbfa1aaab	-1.2630209
80	0x3fa23b0a	1.2674267
81	0xbf04dc26	-0.5189842
82	0xbefb4b42	-0.49080855
83	0xbf38699d	-0.72036153
84	0xbe6c0a9d	-0.23050924
85	0x3eb558cb	0.35419306
86	0xbea58f32	-0.32335812
87	0xbf0515df	-0.519865
88	0x3d5be1e2	0.053682216
89	0xbe7919d5	-0.2432626
90	0x3eaac220	0.3335123
91	0xbfdf7c7d	-1.7459866
92	0x3e787fd7	0.24267517
93	0x3ef82afb	0.48470291
94	0xbdb58977	-0.0886411
95	0xbd1e8eca	-0.038710393
96	0x3bfe3a95	0.0077584484
97	0x3fbc714f	1.4722079
98	0xbf7689b1	-0.9630385
99	0x3fdf46ed	1.744352
100	0xbfd3adb1	-1.6537381
101	0xbf052dff	-0.5202331
102	0x3fb62ffa	1.4233391
103	0xbcf9c33a	-0.0304886
104	0xbf37e5c8	-0.71834993
105	0x3f2dd145	0.67897445
106	0xbedf0023	-0.43554792
107	0xbcd870b0	-0.026420921
108	0x3e992016	0.29907292
109	0xbf42a170	-0.76027584
110	0xbf454946	-0.7706493
111	0x3efe8471	0.4971042
112	0x3f51b265	0.81912833
113	0xbed44438	-0.41458297
114	0xbfa7a6e9	-1.3097812
115	0x3f9bef2a	1.2182362
116	0x3e891f02	0.2678147
117	0x3f092f8b	0.5358817
118	0xbe908651	-0.28227475
119	0xbf25389d	-0.6453951
120	0x3ee943b7	0.45559475
121	0xbf41bd3d	-0.7567938
122	0x3d08fe54	0.03344567
123	0x3ef828c3	0.484686
124	0x3f151a54	0.582433
125	0xbebba974	-0.3665272
126	0x3f09f222	0.5388509
127	0x3fe80f36	1.8129642
128	0xbe82ae1d	-0.25523463
129	0x3e7c7729	0.24654831
130	0xbecf92db	-0.4054173
131	0x3e171393	0.1475356
132	0x3e9e0edd	0.30870715
133	0x3f9087b7	1.1291417
134	0x3ef8527c	0.4850043
135	0xbe1e44d5	-0.15455945
136	0x3f350085	0.7070392
137	0x3ea15c8d	0.31515923
138	0xbe68d9ad	-0.22739287
139	0xbd9bdc6e	-0.07610403
140	0xbdeaecee	-0.11470972
141	0xbe466067	-0.19372712
142	0x3d95fec4	0.07323983
143	0x3ed1683e	0.40899843
144	0x3d02f682	0.03197337
145	0xbe9b8f91	-0.3038297
146	0x3e006654	0.12539035
147	0xbf1054da	-0.56379473
148	0xbe01fa73	-0.12693195
149	0x3e13561a	0.14388314
150	0x3e8f1319	0.27944258
151	0xbe3dcf24	-0.18536049
152	0xbdbb18a5	-0.0913556
153	0x3ec283c3	0.3799115
154	0x3d6d28d2	0.057900257
155	0xbf70212b	-0.9380061
156	0x3d8cfa18	0.06883639
157	0x3c903a40	0.0176059
158	0x3e9a75a9	0.30167893
159	0x3e6815e0	0.22664595
160	0x3e942e62	0.28941637
161	0x3e3b90ea	0.18316999
162	0xbe8741d6	-0.26417416
163	0xbe1c07af	-0.15237306
164	0xbed6e73d	-0.41973296
165	0xbd1fb71a	-0.03899298
166	0xbea7daef	-0.3278422
167	0xbf345139	-0.70436436
168	0x3e9dc60e	0.30815166
169	0x3da41061	0.080109365
170	0xbc8e3374	-0.01735852
171	0x3e1ee25d	0.15516038
172	0xbb46234f	-0.0030233448
173	0xbee6eafe	-0.4510116
174	0x3d8f44a5	0.06995515
175	0xbf5ae7ae	-0.85509765
176	0x3e143bbc	0.14475912
177	0xbedee856	-0.43536633
178	0x3a8e179f	0.001084078
179	0xbc347bd8	-0.011015855
180	0x3eb2104e	0.34778064
181	0xbdc9c605	-0.09852222
182	0xbda6f0b9	-0.08151383
183	0xbd16914a	-0.036759652
184	0x3da7d9bc	0.081958264
185	0xbe92775f	-0.28606698
186	0xbeb5b788	-0.35491586
187	0xbf1b2b8a	-0.6061331
188	0xbf207c4f	-0.6268968
189	0x3d3bae8f	0.04582077
190	0xbe13af5b	-0.14422362
191	0x3e7cd47c	0.24690431
192	0xbe0e19f8	-0.13877094
193	0x3e8f1e78	0.27952933
194	0xbda47624	-0.08030346
195	0x3aca1000	0.0015416145
196	0xbe3a42a7	-0.18189488
197	0x3ef02aa3	0.4690753
198	0xbe21c8a2	-0.15799192
199	0x3ca06611	0.019579919
200	0xbe4f6a21	-0.20255329
201	0x3ebc18cb	0.36737666
202	0x3e6e7a22	0.23288777
203	0x3e3c4479	0.18385495
204	0x3e8bda42	0.27314955
205	0xbd8c6ebc	-0.068570584
206	0xbec478c7	-0.38373396
207	0x3e687b99	0.22703399
208	0x3e81793b	0.25287804
209	0x3ce69a79	0.02814983
210	0x3e9a3311	0.30117086
211	0xba98a1f7	-0.0011644949
212	0x3e0661db	0.13123266
213	0x3ea869b9	0.3289316
214	0x3da0fcbf	0.078607075
215	0x3eb696bb	0.35661873
216	0xbd584e70	-0.05280918
217	0xbe829fed	-0.2551264
218	0xbe2e344d	-0.17012139
219	0x3ca12354	0.019670166
220	0x3d36c1c4	0.044618383
221	0x3f00d827	0.5032982
222	0x3eb01945	0.3439428
223	0x3c9aba70	0.018887728
224	0xbb338925	-0.0027394977
225	0xbf8a9446	-1.08265
226	0x3e26144a	0.16218677
227	0x3f21e766	0.6324371
228	0x3ea1a72f	0.31572863
229	0x3e2b947a	0.16755858
230	0xbf9f6a37	-1.2454289
231	0x3d97a711	0.07404912
232	0x3e624f2e	0.22100517
233	0x3e3c04b2	0.18361166
234	0xbdaf3b08	-0.08556181
235	0xbda8c814	-0.08241287
236	0xbe9241f1	-0.28565934
237	0x3ea23934	0.31684268
238	0x3dd03b80	0.10167599
239	0xbf0677f9	-0.52526814
240	0xbf082223	-0.5317709
241	0x3dfb77ee	0.12278734
242	0x3e8ccb01	0.2749863
243	0xbf8d7e2c	-1.105413
244	0xbe9de5fb	-0.30839524
245	0xbe9d7338	-0.30751967
246	0x3e53f5e2	0.20699266
247	0x3e492fea	0.19647184
248	0xbeada6dd	-0.3391637
249	0x3e54a6c7	0.20766746
250	0xbd238058	-0.03991732
251	0xbe8975d6	-0.26847714
252	0xbe851a71	-0.25996736
253	0x3e3b065e	0.18264148
254	0xbd4a3f0a	-0.049376525
255	0xbf69d7b8	-0.91344786

fc2.bias f4 [6]
0	0x3c29be6e	0.010360343
1	0xbdd14385	-0.102179565
2	0x3de0e8dc	0.109819144
3	0x3d70bbe5	0.05877294
4	0xbdd52e02	-0.10409166
5	0xbc16c445	-0.009202068
