Grade1.pth (torch, 19902 bytes, 5 tensors)

fc1.weight f4 [64, 2]
0	0x3ece50f1	0.40296128
1	0x3f60632e	0.87651336
2	0xbe93c75a	-0.2886303
3	0x3f2a13ce	0.6643647
4	0xbed66bd1	-0.41879132
5	0xbe6344c4	-0.22194201
6	0xbeef58e4	-0.46747506
7	0xbeabe741	-0.3357487
8	0x3ed88a91	0.42293218
9	0x3eb9babc	0.3627528
10	0x3d016370	0.03158897
11	0xbf0a762c	-0.54086566
12	0xbf17c787	-0.5928883
13	0x3eada3dc	0.33914077
14	0xbf29a1f1	-0.6626273
15	0xbe28f6da	-0.16500416
16	0x3e5cb77f	0.21554373
17	0xbf2dc5ad	-0.67879754
18	0xbdb80cfb	-0.08986851
19	0x3d78d163	0.06074656
20	0xbdbb03ed	-0.09131608
21	0xbed78837	-0.4209611
22	0xbe9e2e37	-0.30894634
23	0x3c916ce0	0.017752111
24	0x3f112427	0.5669579
25	0x3f280765	0.65636283
26	0xbef5c23a	-0.47999746
27	0xbe5fa424	-0.21839958
28	0xbf030510	-0.511796
29	0x3f0a852b	0.5410945
30	0xbf0f9a2a	-0.5609461
31	0xbf04d1c7	-0.51882595
32	0x3f26621d	0.6499346
33	0x3e93a50b	0.28836855
34	0x3e9d5d3e	0.307352
35	0xbf1a78d1	-0.603406
36	0x3ed96936	0.42463082
37	0xbed4807c	-0.41504276
38	0x3eaeab6d	0.34115162
39	0xbe82b3c5	-0.25527778
40	0xbd988970	-0.07448089
41	0xbe8f93d7	-0.2804248
42	0x3f3522a7	0.70756
43	0x3e203afc	0.15647501
44	0x3ec89492	0.3917585
45	0xbf0381f9	-0.513702
46	0x3f05d963	0.5228483
47	0xbe009d4d	-0.12560005
48	0x3e49f321	0.19721653
49	0xbe913629	-0.28361633
50	0x3eab5b12	0.3346792
51	0xbf0f734b	-0.560353
52	0xbefe7d45	-0.49704948
53	0xbe0267a6	-0.12734851
54	0x3e0f9f1b	0.14025538
55	0x3e608dc9	0.21929087
56	0xbeb17b71	-0.3466449
57	0x3db46005	0.08807377
58	0xbec4222d	-0.38307324
59	0x3e83f38a	0.25771743
60	0x3eaa6f4e	0.33288044
61	0x3f6ba68a	0.92050993
62	0xbecd2354	-0.40066016
63	0x3efae000	0.48999023
64	0x3ecf27d2	0.40460068
65	0x3f158ca1	0.5841771
66	0x3ed5b109	0.4173663
67	0xbed8f9f9	-0.42378214
68	0x3ef15e2a	0.47142154
69	0xbefed113	-0.49768886
70	0xbed35606	-0.41276568
71	0x3f43c6cc	0.76475215
72	0x3e267a40	0.16257572
73	0xbf040d52	-0.51582825
74	0x3ec0942a	0.3761304
75	0xbd16b1e0	-0.03679073
76	0xbf0c9719	-0.54918057
77	0xbd54bfef	-0.051940855
78	0xbf142ba5	-0.57879096
79	0x3ef5260a	0.47880584
80	0xbf324c97	-0.69648117
81	0xbe9234ba	-0.28555852
82	0x3f07a7ad	0.5299023
83	0xbf22262f	-0.63339514
84	0x3ec9910a	0.3936847
85	0xbed19781	-0.409359
86	0x3eb6d432	0.35708767
87	0x3f5267f2	0.8218986
88	0x3d5e3855	0.05425294
89	0xbe1e2da3	-0.15447097
90	0x3edeb6e8	0.4349892
91	0x3e9d33c9	0.3070357
92	0xbe7515fc	-0.23934168
93	0xbea34b31	-0.31893304
94	0xbf2e08f9	-0.6798244
95	0x3d58ae90	0.05290085
96	0xbe87278c	-0.2639736
97	0x3e9fa6c3	0.31181917
98	0xbe1e7b08	-0.1547662
99	0xbef817a2	-0.4845553
100	0x3e7dc87b	0.24783508
101	0x3e468199	0.19385375
102	0xbf2d79d4	-0.6776402
103	0x3f34354c	0.70393825
104	0xbec169f2	-0.37776142
105	0xbe8b5b0d	-0.27217904
106	0x3e621a38	0.22080314
107	0xbf0d4b78	-0.5519328
108	0xbcaad740	-0.020854592
109	0xbee70bf5	-0.4512631
110	0x3e9a414a	0.30127937
111	0xbe530d84	-0.20610625
112	0x3e5ecc94	0.21757728
113	0xbf1b7602	-0.6072694
114	0x3ebe7d9a	0.372052
115	0x3ed1c817	0.4097297
116	0xbee9b1f9	-0.45643595
117	0xbf0d0dde	-0.55099285
118	0xbea2fe1b	-0.31834492
119	0xbb564700	-0.0032696128
120	0xbf211fec	-0.62939334
121	0x3f025e26	0.5092491
122	0xbeec2d0d	-0.4612812
123	0xbe8ee46a	-0.2790864
124	0x3ed9ca21	0.42537025
125	0xbf2db2b3	-0.678508
126	0x3de854c0	0.1134429
127	0xbf333f84	-0.7001879

fc1.bias f4 [64]
0	0x3ea00ba2	0.31258875
1	0xb32f6fea	-4.0847148e-08
2	0xbf0d3156	-0.55153406
3	0xbe50c2c8	-0.20386803
4	0xbecdbb1a	-0.4018181
5	0x3e26167b	0.16219513
6	0xbe048c20	-0.12944078
7	0x3f383d36	0.719684
8	0x3f13d4c5	0.57746536
9	0xb9cbe79f	-0.00038891748
10	0x3f29d7d5	0.6634496
11	0xbe549baa	-0.20762506
12	0xbc43fd08	-0.011962183
13	0x3f07b8ce	0.53016365
14	0x3ee74116	0.45166844
15	0xbe146f68	-0.14495623
16	0xbe3b8d53	-0.1831563
17	0x3f542b38	0.82878447
18	0x3e8e87e3	0.27838048
19	0x3e454b2b	0.19266956
20	0xbd6da100	-0.05801487
21	0x3eafd5d2	0.3434282
22	0x3d223b56	0.03960737
23	0x3cb9a8b8	0.02266346
24	0x3de85a4f	0.1134535
25	0xbeaa8d3c	-0.33310878
26	0x3f081ff3	0.5317375
27	0xbe46eaa8	-0.19425452
28	0xbe795325	-0.24348123
29	0x3e35abb3	0.1774128
30	0x3eba48e2	0.3638373
31	0x3efd91ec	0.49525392
32	0xbf0239d3	-0.5086948
33	0x3f017f04	0.50584435
34	0xbf1b05ce	-0.6055573
35	0x3ef273a5	0.47353855
36	0xbf32907f	-0.69751734
37	0xbeb46cf2	-0.3523937
38	0x3f19e35b	0.6011254
39	0xbeb94e25	-0.36192432
40	0x3ea8d3de	0.32974142
41	0xbf23720e	-0.6384591
42	0x3f494e3f	0.7863502
43	0x3f1548ae	0.58314025
44	0x3f153460	0.5828304
45	0x3f3aa11a	0.7290207
46	0x3e21615e	0.15759799
47	0xbf1b197d	-0.6058577
48	0x3f293d61	0.6610928
49	0x3d1ecf34	0.038771823
50	0x3eed5f58	0.46361804
51	0xbd25b000	-0.04045105
52	0xbf057b38	-0.5214114
53	0xbe4a1e74	-0.1973818
54	0xbf32e82b	-0.6988551
55	0xbec40f50	-0.38292933
56	0xbebd3046	-0.36950892
57	0x3e688635	0.22707446
58	0xbeaceb42	-0.33773237
59	0xbea9a3ef	-0.33132884
60	0x3f1c0e8d	0.609597
61	0x3f2c8fe6	0.6740707
62	0x3f43e1ca	0.765164
63	0x3e9e3346	0.30898494

fc2.weight f4 [64, 64]
0	0x3cfe7606	0.031062137
1	0x3dd575f5	0.10422889
2	0x3d1ca2c8	0.038241178
3	0x3df22190	0.11822808
4	0x3d98bacb	0.07457503
5	0x3cb4d7a4	0.022075482
6	0x3d566c88	0.052349597
7	0xbda54323	-0.08069446
8	0xbdb5ce7e	-0.08877276
9	0xbcfed881	-0.031109096
10	0x3c696f06	0.014247661
11	0xbcb08f70	-0.021552771
12	0x3e2129cd	0.15738602
13	0xbdf2595b	-0.118334495
14	0x3df1e66f	0.1181153
15	0xbcaf3cb8	-0.021391258
16	0x3d16bde9	0.036802206
17	0x3d0f816e	0.035035543
18	0x3cbc0f07	0.022956384
19	0x3c820e5c	0.015875988
20	0xbde15252	-0.110020295
21	0x3e22b993	0.15891103
22	0x3bbb602d	0.005718252
23	0x3c6c2305	0.014412646
24	0x3d89dc84	0.06731513
25	0x3d7c143c	0.061542735
26	0xbb1a1822	-0.002351292
27	0xbd58eda2	-0.052961
28	0xbd9398d2	-0.072068825
29	0xbd03b740	-0.032157183
30	0x3d011e05	0.03152277
31	0x3da676e7	0.081281476
32	0xbd716f6a	-0.058944143
33	0x3d2f8896	0.042854868
34	0xbddf02fa	-0.108892396
35	0x3e1944af	0.14967607
36	0xbb98aec0	-0.0046595037
37	0xbd31272c	-0.043250248
38	0xbe27cca7	-0.16386662
39	0x3c8c1b66	0.017102908
40	0xbd327030	-0.04356402
41	0xbcd051e8	-0.025429681
42	0xbcc89c26	-0.02448852
43	0x3badf971	0.0053092767
44	0xbd851c87	-0.06499582
45	0xbd9f0a3f	-0.07765626
46	0xbdf8382f	-0.12120091
47	0x3df463ae	0.11933075
48	0x3deab7a2	0.114608064
49	0x3d84c00c	0.064819425
50	0x3df450a3	0.11929443
51	0xbb929df2	-0.004474395
52	0xbd872aae	-0.065999374
53	0xbbaa5d60	-0.0051991194
54	0xbc932b40	-0.01796496
55	0x3d6dd69c	0.058065996
56	0x3dcf72c4	0.10129312
57	0xbce0ec73	-0.027456498
58	0x3dcf1764	0.10111883
59	0x3da39478	0.079873025
60	0x3dac0948	0.08400208
61	0xbd7450d5	-0.0596474
62	0xbe20f1aa	-0.15717188
63	0x3c3b4862	0.011430832
64	0xbbbff452	-0.0058579827
65	0x3df51dab	0.11968549
66	0xbdcd72bc	-0.100316495
67	0x3cfaedd8	0.03063099
68	0xbd08a940	-0.033364534
69	0xbcb87cd0	-0.022520453
70	0xbd368996	-0.044564806
71	0x3bf8843e	0.007584124
72	0x3d4bc9d0	0.04975301
73	0xbde21b97	-0.110404186
74	0x3c70c188	0.014694579
75	0xbd95edec	-0.073207706
76	0x3d366716	0.044531904
77	0x3d99569e	0.07487224
78	0xbcbfba52	-0.023404274
79	0x3c5ebd80	0.013594985
80	0x3d8c1f10	0.06841862
81	0x3d14242c	0.03616731
82	0xbcd382f0	-0.025819272
83	0xbce282fb	-0.027650347
84	0xbd9df67e	-0.0771303
85	0xbdf60cc0	-0.120141506
86	0x3d9d65bc	0.0768542
87	0xbbb27c7f	-0.00544697
88	0xbdd866c0	-0.10566473
89	0xbdc24280	-0.0948534
90	0xbd48465a	-0.048895217
91	0xbd2d9e62	-0.042387374
92	0x3cf510d0	0.029915243
93	0xbc2976c8	-0.010343261
94	0xbc080b43	-0.008303466
95	0x3da60f19	0.081083484
96	0xbd0e1bf7	-0.034694638
97	0xbc6ce01d	-0.01445773
98	0xbd9860c0	-0.074403286
99	0x3d3382a1	0.04382575
100	0xbdbc79c8	-0.092029154
101	0x3cac6768	0.021045402
102	0xbb984e22	-0.004647986
103	0x3c4bca3f	0.012438356
104	0xbdc6a680	-0.09699726
105	0xbd529274	-0.0514092
106	0xbc5fe4db	-0.013665403
107	0x3d96850e	0.07349597
108	0xbded40e8	-0.115846455
109	0xbdf77c95	-0.12084309
110	0xbd99aa76	-0.07503216
111	0x3da733ce	0.08164178
112	0x3deb8a60	0.11501002
113	0x3d77eda4	0.060529366
114	0xbcbcf8ae	-0.023067798
115	0x3ce3c634	0.027804472
116	0x3da5788a	0.080796316
117	0x3cacb3e8	0.02108188
118	0xbd4be480	-0.04977846
119	0xbddcf4f4	-0.107889086
120	0x3d8e3966	0.06944542
121	0xbd693b0f	-0.05694109
122	0xbcae1bb0	-0.021253437
123	0xbd37efa0	-0.04490626
124	0x3da350af	0.079743735
125	0x3d238ced	0.03992932
126	0x3cde49c9	0.027134793
127	0x3de93d70	0.113886714
128	0x3eafcac6	0.3433439
129	0x3e049b6c	0.12949914
130	0x3c47dca0	0.012198597
131	0xbda28ccc	-0.07937011
132	0x3e218dae	0.15776703
133	0xbe148c2f	-0.14506601
134	0xbd9e8094	-0.07739368
135	0xbe13fcc3	-0.1445189
136	0xbe4a5f16	-0.19762835
137	0xbdb45025	-0.08804349
138	0xbd299a11	-0.041406695
139	0xbdfb847e	-0.1228113
140	0x3e8b739d	0.27236643
141	0xbdfaa5ef	-0.122386806
142	0x3d1d69e3	0.03843106
143	0x3c1695a0	0.009190947
144	0x3d491b33	0.049098205
145	0xbdd4cc92	-0.10390581
146	0xbc6c6611	-0.014428631
147	0x3bbec7f9	0.0058221784
148	0xbdd1cd42	-0.10244228
149	0x3e50df5f	0.2039771
150	0xbdb3991f	-0.0876944
151	0x3d06f6c1	0.032950167
152	0x3d69ec1d	0.05710994
153	0x3b3e4c00	0.0029036999
154	0xbd64dad2	-0.055872746
155	0xbd83aab2	-0.06429042
156	0xbd5b2cbe	-0.053509466
157	0x3defcbed	0.11708818
158	0x3ea55e63	0.32298574
159	0x3da64533	0.081186675
160	0x3e2d92ef	0.16950582
161	0xbd38b63b	-0.045095664
162	0xbce5c998	-0.028050229
163	0x3d61667e	0.055029385
164	0x3b892a20	0.00418593
165	0xbd8e45ae	-0.06946884
166	0xbe454abe	-0.19266793
167	0x3cfb28f2	0.030659173
168	0xbe298000	-0.16552734
169	0xbdf11df0	-0.11773288
170	0xbe12a685	-0.14321335
171	0x3e97a51f	0.29618165
172	0xbdcca5f7	-0.09992593
173	0x3e40b2a4	0.18818146
174	0xbd176828	-0.036964566
175	0x3c1b6200	0.009483814
176	0x3de9d9aa	0.11418469
177	0x3ce5e301	0.028062345
178	0x3e2b7ed0	0.16747594
179	0xbd16add7	-0.03678688
180	0x3dd7fac8	0.105458796
181	0x3dc0bdce	0.09411202
182	0x3dba63f8	0.09101099
183	0xbd65d550	-0.056111634
184	0xbbd99d00	-0.0066410303
185	0x3e51d0f3	0.20489864
186	0xbd30ac50	-0.04313308
187	0xbbec39e0	-0.0072090477
188	0x3d7f5ce5	0.06234445
189	0xbc90c189	-0.01767041
190	0xbd848a84	-0.06471732
191	0xbd812475	-0.06305782
192	0xbd8016b9	-0.06254334
193	0x3d03d472	0.032185026
194	0xbce921a0	-0.028458416
195	0x3daf6e06	0.08565907
196	0xbdc2513f	-0.09488153
197	0x3d93942b	0.07205995
198	0xbd088b70	-0.033336103
199	0xbd3771f7	-0.04478642
200	0xbdab8e66	-0.0837677
201	0x3c2aafb8	0.010417871
202	0xbdf89610	-0.12137997
203	0xbdfdf2b8	-0.123998106
204	0x3dc8dbce	0.098075494
205	0x3da7ced3	0.081937455
206	0xbd27cd39	-0.0409672
207	0xbc9a88d8	-0.01886408
208	0x3baac2bd	0.005211203
209	0xbd984500	-0.07435036
210	0x3d95e9e7	0.07320004
211	0x3d23b29a	0.03996525
212	0xbd72b3b8	-0.059253424
213	0xbd42e258	-0.04757914
214	0xbd8753b3	-0.06607761
215	0xbdcec985	-0.100970306
216	0xbe04cb6a	-0.12968221
217	0xbc72e690	-0.014825478
218	0x3daba75c	0.08381531
219	0x3d44eb52	0.04807598
220	0xbd064324	-0.032778874
221	0xbdb1566d	-0.086590625
222	0x3e0d66d0	0.13808751
223	0x3d484251	0.04889137
224	0x3cee3ffe	0.029083248
225	0xbd6927a6	-0.056922577
226	0x3db73bbe	0.08946942
227	0x3b53de80	0.0032328665
228	0x3de38674	0.11109629
229	0xbded9dc0	-0.11602354
230	0xbd1fa840	-0.038978815
231	0xbdcc94e8	-0.09989339
232	0xbd43f3b6	-0.047839843
233	0x3d902970	0.070391536
234	0xbcb66333	-0.022264099
235	0x3e144d5a	0.14482632
236	0x3d650239	0.055910323
237	0x3d360a49	0.044443402
238	0xbd9a77c5	-0.075423755
239	0x3c8e34e8	0.017359212
240	0x3db91a17	0.09038179
241	0xbd9d142e	-0.076698646
242	0xbdcacf2a	-0.09902795
243	0x3d09ee8d	0.033674765
244	0x3d316774	0.04331155
245	0x3d522a70	0.051310003
246	0x3df4ba22	0.119495645
247	0xbc9f8150	-0.01947084
248	0x3ccd60c8	0.025070563
249	0x3d70aba0	0.058757424
250	0xbda41944	-0.080126315
251	0x3cbccf78	0.023048148
252	0x3db887c5	0.09010271
253	0x3d8857b6	0.066573545
254	0xbc3e902c	-0.011631053
255	0xbc4c5338	-0.012471013

fc2.bias f4 [64]
0	0x3da094fe	0.07840918
1	0xbdd46b56	-0.10372035
2	0xbd453d4d	-0.048154164
3	0xbd610122	-0.05493272
4	0x3d706598	0.058690637
5	0x3d965dab	0.073420845
6	0x3d8891a0	0.06668401
7	0x3d2e0c9e	0.0424925
8	0x3b248208	0.0025101919
9	0x3d765e1a	0.060148336
10	0x3e3730b6	0.17889675
11	0xbd71912a	-0.05897633
12	0x3cec0310	0.028810054
13	0xbdeff095	-0.11715809
14	0xbe01c2f5	-0.12672026
15	0xbd30bb3f	-0.04314732
16	0x3dae6bef	0.085166804
17	0x3deb6e18	0.11495608
18	0x3db88b81	0.09010983
19	0xbd7ee7c4	-0.062232748
20	0x3d41f464	0.04735221
21	0xbda357f4	-0.0797576
22	0x3dc1c791	0.094618924
23	0xbd877a94	-0.06615177
24	0x3ca5f508	0.020258442
25	0xbdbddc60	-0.09270549
26	0xbd67df70	-0.05660957
27	0x3d0cdb50	0.03438884
28	0xbd2f9ed8	-0.042876095
29	0x3d887eca	0.06664808
30	0x3db65d0b	0.08904465
31	0xbdf55054	-0.11978212
32	0xbc9eed59	-0.019400286
33	0x3e382c3e	0.17985627
34	0x3d571860	0.05251348
35	0xbc4e4f35	-0.012592127
36	0x3e8626e1	0.26201537
37	0x3d888fee	0.066680774
38	0x3db6d5f2	0.089275256
39	0xbdc7e914	-0.09761253
40	0x3bcb5550	0.0062052384
41	0xbd5b3046	-0.053512834
42	0xbbd29f20	-0.0064276606
43	0x3d882a85	0.06648735
44	0x3d727de6	0.059202097
45	0xbcfd4360	-0.030915916
46	0xbdac9818	-0.08427447
47	0xbd035284	-0.032061115
48	0xb9b84cdd	-0.00035152482
49	0x3e4b0d30	0.1982925
50	0x3e599400	0.21247864
51	0xbd41831c	-0.047244176
52	0xbde9b6e6	-0.11411838
53	0x3ccea5f0	0.02522561
54	0x3dda4eab	0.10659536
55	0xbd2a59b3	-0.04158945
56	0xbc9efa88	-0.019406572
57	0x3bdc4df9	0.0067231623
58	0xbc940167	-0.018067075
59	0xbcdfde4e	-0.027327683
60	0xbd854479	-0.06507201
61	0xbc661795	-0.014043708
62	0x3d58f7c5	0.052970666
63	0x3e3558b9	0.17709626

fc3.weight f4 [1, 64]
0	0xbe84b63a	-0.25920278
1	0xbce6d611	-0.028178247
2	0xbf4ebee0	-0.8076
3	0xbe17e511	-0.14833476
4	0xbde0a906	-0.10969739
5	0xbe739cb2	-0.23790243
6	0xbef05955	-0.46943155
7	0xbed22d99	-0.41050413
8	0x3f004f16	0.50120676
9	0x3cf303fc	0.029664986
10	0x3ec27eeb	0.37987456
11	0xbdaa01b1	-0.08301104
12	0xbd888d2d	-0.06667552
13	0xbe5407c2	-0.20706084
14	0xbdb17e96	-0.086667225
15	0x3b9bb9ca	0.0047523724
16	0xbe0da6d9	-0.13833179
17	0x3d8ea5a6	0.06965189
18	0x3f1371b2	0.5759536
19	0xbea6c4ba	-0.32571965
20	0x3b3db80e	0.0028948816
21	0xbeb670c2	-0.35632902
22	0xbf02d7f7	-0.51110786
23	0x3d9fbefc	0.07800099
24	0xbc739e40	-0.014869273
25	0x3d6cfcec	0.057858393
26	0x3d7609b8	0.060067862
27	0xbed755a1	-0.42057517
28	0x3de334d2	0.11094059
29	0xbd299f26	-0.04141154
30	0x3ee0cd61	0.43906692
31	0xbd5c9ff4	-0.05386348
32	0xbdbc36a2	-0.09190108
33	0x3f1fec86	0.6247028
34	0x3d45c31c	0.048281774
35	0xbf0609f9	-0.5235897
36	0x3f3db1ac	0.7409923
37	0x3de69df6	0.112605974
38	0xbdcc5b1c	-0.09978315
39	0x3e2af959	0.16696681
40	0x3e1969a7	0.1498171
41	0x3d2bceca	0.041945256
42	0xb9a1a400	-0.00030830503
43	0xbd7aa497	-0.06119212
44	0xbbe717bd	-0.0070523904
45	0xbda21d74	-0.07915774
46	0xbdd2f1e0	-0.1030004
47	0xbee26a9e	-0.44221967
48	0x3e1ff87a	0.1562213
49	0x3ed9824d	0.42482224
50	0x3f1e4a94	0.6183255
51	0x3df79500	0.12088966
52	0x3dd9cb9e	0.1063454
53	0x3c770e40	0.015079081
54	0xbe714d49	-0.23564638
55	0xbe3be8eb	-0.1835057
56	0x3ea5f45f	0.32413003
57	0xbed0b3dc	-0.40762222
58	0xbec0b082	-0.37634665
59	0xbe68c225	-0.2273031
60	0xbec65ef8	-0.3874433
61	0xbe2513c0	-0.16120815
62	0xbf09e362	-0.53862584
63	0x3edf6657	0.43632767
