Grade2.pth (torch, 2558 bytes, 5 tensors)

fc1.weight f4 [4, 4]
0	0x3ea8d95a	0.32978326
1	0x3eac9718	0.33709025
2	0xc028aca7	-2.6355379
3	0x3f9b45bc	1.2130656
4	0xbfd3dd91	-1.6551992
5	0x3c000c31	0.007815407
6	0x3fa6a29c	1.3018374
7	0xbe4fc7d2	-0.20291069
8	0x3e9bdf87	0.30443975
9	0xbe10219f	-0.14075325
10	0x3e8e6866	0.27814025
11	0xbf09b263	-0.5378782
12	0x3dc46af8	0.09590715
13	0xbdc34140	-0.0953393
14	0xbe4eab8c	-0.20182627
15	0xbea1e7f8	-0.3162229

fc1.bias f4 [4]
0	0xbfd669d3	-1.6751045
1	0x3ff50953	1.914347
2	0x3dc424ae	0.095773086
3	0xbeb0c788	-0.3452723

fc2.weight f4 [2, 4]
0	0xbf6aacf3	-0.9167015
1	0x3f639de9	0.88912827
2	0xbea84690	-0.32866335
3	0xbc8777c0	-0.016536593
4	0xbdc6afa0	-0.097014666
5	0xbd21d0e2	-0.039505847
6	0xbdaf5e40	-0.08562899
7	0xbef6f524	-0.48233902

fc2.bias f4 [2]
0	0x3fd84d67	1.6898621
1	0x3c060fb4	0.008182455

fc3.weight f4 [1, 2]
0	0xbf9427fa	-1.15747
1	0x3f2b55de	0.669279
